…
Using cache found in /home/estudiante/.cache/torch/hub/huggingface_pytorch-transformers_main
     id  course_id  rating                                          embedding
0  U_24     597214       1  [[tensor(-0.9290), tensor(-0.4433), tensor(-0....
1  U_24     605512       1  [[tensor(-0.9290), tensor(-0.4433), tensor(-0....
2  U_24     597211       1  [[tensor(-0.9290), tensor(-0.4433), tensor(-0....
3  U_24     597314       1  [[tensor(-0.8701), tensor(-0.4919), tensor(-0....
4  U_24     597208       1  [[tensor(-0.8080), tensor(-0.4712), tensor(-0....
694530 4701
Create Train Data Loader
BertMF(
  (mlp): MultiLayerPerceptron(
    (embedding_user): Embedding(694530, 32)
    (embedding_item): Embedding(4701, 32)
    (fc_layers): ModuleList(
      (0): Linear(in_features=64, out_features=32, bias=True)
      (1): Linear(in_features=32, out_features=16, bias=True)
      (2): Linear(in_features=16, out_features=8, bias=True)
    )
  )
  (gmf): GeneralizedMatrixFactorization(
    (embedding_user): Embedding(694530, 32)
    (embedding_item): Embedding(4701, 32)
  )
  (bert): BertModel(
    (embeddings): BertEmbeddings(
      (word_embeddings): Embedding(30522, 768, padding_idx=0)
      (position_embeddings): Embedding(512, 768)
      (token_type_embeddings): Embedding(2, 768)
      (LayerNorm): LayerNorm((768,), eps=1e-12, elementwise_affine=True)
      (dropout): Dropout(p=0.1, inplace=False)
    )
    (encoder): BertEncoder(
      (layer): ModuleList(
        (0-11): 12 x BertLayer(
          (attention): BertAttention(
            (self): BertSelfAttention(
              (query): Linear(in_features=768, out_features=768, bias=True)
              (key): Linear(in_features=768, out_features=768, bias=True)
              (value): Linear(in_features=768, out_features=768, bias=True)
              (dropout): Dropout(p=0.1, inplace=False)
            )
            (output): BertSelfOutput(
              (dense): Linear(in_features=768, out_features=768, bias=True)
              (LayerNorm): LayerNorm((768,), eps=1e-12, elementwise_affine=True)
              (dropout): Dropout(p=0.1, inplace=False)
            )
          )
          (intermediate): BertIntermediate(
            (dense): Linear(in_features=768, out_features=3072, bias=True)
            (intermediate_act_fn): GELUActivation()
          )
          (output): BertOutput(
            (dense): Linear(in_features=3072, out_features=768, bias=True)
            (LayerNorm): LayerNorm((768,), eps=1e-12, elementwise_affine=True)
            (dropout): Dropout(p=0.1, inplace=False)
          )
        )
      )
    )
    (pooler): BertPooler(
      (dense): Linear(in_features=768, out_features=768, bias=True)
      (activation): Tanh()
    )
  )
  (affine_output): Linear(in_features=808, out_features=1, bias=True)
  (logistic): Sigmoid()
)
  0%|          | 0/130539 [00:00<?, ?it/s]  0%|          | 1/130539 [00:02<79:37:16,  2.20s/it]  0%|          | 5/130539 [00:02<13:41:32,  2.65it/s]  0%|          | 18/130539 [00:02<2:59:26, 12.12it/s]  0%|          | 31/130539 [00:02<1:32:52, 23.42it/s]  0%|          | 44/130539 [00:02<1:00:06, 36.18it/s]  0%|          |
…
